model/model.pth (torch, 224540 bytes, 10 tensors)

Conv1.weight f4 [6, 1, 3, 3]
0.14278506 0.109671704 0.3664529 0.1769065 0.17070024 -0.22719282 -0.29701984 -0.12201606
-0.11150113 -0.30084354 0.08955943 -0.4346998 -0.24465619 0.21808836 0.18109618 0.4608842
-0.16896422 0.37529573 0.09823635 0.24635863 0.17404884 0.12180299 0.4365046 0.38144723
-0.26560247 0.06925505 -0.2512745 0.2292046 0.17442434 0.19520947 0.50540996 -0.030976415
0.5781489 -0.091452666 0.298374 0.54138255 -0.19169173 -0.26098618 -0.34425688 -0.032740794
-0.32076174 0.13874617 -0.30429685 0.14437868 -0.058460973 -0.17070219 0.4041602 0.016077235
0.6605346 0.36510274 0.105093874 0.47090462 0.675747 0.646917
00000000: 3f36 123e 8f9b e03d b79f bb3e fa26 353e
00000010: 0bcc 2e3e 3ca5 68be fc12 98be 8ee3 f9bd
00000020: b45a e4bd 2a08 9abe ef6a b73d f990 debe
00000030: 2787 7abe 8e52 5f3e 4771 393e 04f9 eb3e
00000040: f504 2dbe c326 c03e 2430 c93d 7045 7c3e
00000050: dc39 323e d973 f93d 887d df3e 0d4d c33e
00000060: 0cfd 87be 97d5 8d3d 0da7 80be 9cb4 6a3e
00000070: 4b9c 323e fee4 473e 8c62 013f 40c2 fdbc
00000080: 9101 143f 894b bbbd 7ac4 983e 0c98 0a3f
00000090: d64a 44be fb9f 85be 7042 b0be 361b 06bd
000000a0: e23a a4be 7a13 0e3e cccc 9bbe 01d8 133e
000000b0: c674 6fbd 8ecc 2ebe 16ee ce3e 68b4 833c
000000c0: cc18 293f bfee ba3e 753b d73d 691a f13e
000000d0: c1fd 2c3f 5a9c 253f

Conv1.bias f4 [6]
0.1932415 0.041610714 -0.00024382723 -1.3936788e-05 0.41946623 0.040198818
00000000: 1ae1 453e ff6f 2a3d e0ab 7fb9 0cd2 69b7
00000010: 47c4 d63e 84a7 243d

Conv2.weight f4 [10, 6, 3, 3]
0.035010375 0.07672153 -0.033989042 -0.0315769 -0.1026031 -0.15300949 -0.014829739 0.053345527
-0.115154535 -0.09903488 -0.03105218 -0.006324989 0.016903028 0.12837477 -0.030314952 -0.020671338
-0.04927883 0.028873734 -0.12042012 -0.047200587 -0.039083593 0.17840564 0.1366936 -0.012493127
0.025230505 0.11692781 0.10944837 0.067000255 -0.14333348 -0.17516752 0.12863013 0.009260159
0.010280899 0.0411619 0.1606583 0.045734264 -0.014458448 0.011658158 0.043231152 0.01607323
-0.050590944 0.10363212 -0.13905738 -0.041344497 0.03814224 0.100282595 -0.023654308 -0.11620124
-0.00897999 0.21923548 0.03681275 -0.170556 -0.12112157 0.1030274 -0.0044702445 0.10253946
-0.1117748 -0.045341983 -0.06396573 -0.13131626 0.096574254 0.05289576 0.118242696 -0.03945438
-0.07856429 0.09365083 0.056519862 0.013561709 0.03675702 -0.13737291 -0.121528715 -0.08578052
-0.042159952 0.0794167 -0.11980403 0.073259525 -0.14247103 -0.017208457 -0.11920714 -0.09408217
0.076056905 0.15298663 -0.14467655 -0.02938997 0.09992963 -0.16312945 0.11880941 -0.0014166451
-0.14272024 0.06878554 0.0793036 0.10923527 0.17088406 0.1447241 0.060839016 -0.05400261
-0.010556644 0.03362261 0.02741749 0.09231903 0.0404509 0.008357414 -0.017686926 -0.13709201
-0.07162637 0.018352129 0.006581361 0.13734545 -0.054179683 -0.10084655 -0.09589724 0.07396556
0.0396692 -0.08332802 0.028916916 0.16894232 0.087951936 -0.010026229 0.07680233 -0.1021608
0.18139367 0.011365037 0.1618196 -0.012205327 0.03075087 0.088295326 -0.07234868 -0.108069174
-0.033850383 -0.0116504235 -0.033393577 0.016097145 0.03691582 0.19439161 -0.053278398 -0.23241109
-0.10045433 -0.2018461 0.039203774 -0.025735296 -0.14244443 0.039678387 0.062142935 -0.023744421
0.065200455 0.13301149 0.12334053 0.07122984 -0.065081276 0.054588407 -0.015661022 0.045696836
-0.014656728 -0.1710721 -0.28416863 -0.25388315 0.1505626 0.10585026 0.048330534 0.054006606
0.16756348 0.23289225 -0.03318204 0.01600107 -0.064530574 0.06559551 0.062078603 0.018765153
0.09258264 0.090200596 0.07733823 0.07035317 0.01612318 0.03952077 -0.0051959623 -0.13355811
-0.07686773 -0.05079836 0.0982672 0.1453535 -0.004246723 0.0042360574 0.011569607 0.014232477
0.074255034 0.07458092 0.046180535 0.0016686728 0.12559481 0.18583927 0.05697344 0.07611577
0.013735482 0.16507474 0.13949537 -0.03664332 0.1393387 0.24235485 -0.003087251 -0.17764764
-0.1055237 -0.13557966 0.045380954 -0.11548228 -0.08572464 0.08389583 -0.16000773 0.27763006
0.19417231 0.15262622 0.16333583 0.14410813 0.12787974 -0.18062072 0.1020728 0.20852846
0.0036310474 -0.12667459 -0.041243207 0.074484356 0.068234906 0.12494604 0.2282362 0.17754483
0.22306094 0.14018334 -0.024925707 0.04071266 0.20566529 0.19934326 0.21615978 0.06567456
-0.018902235 -0.03859522 -0.08300751 -0.14406446 -0.12427681 -0.05726166 0.010555739 0.20769814
0.20244372 0.27463526 0.020703353 0.08815074 -0.119612195 -0.09294057 0.206829 0.076594345
0.1873758 0.091000736 0.13563581 0.045563556 0.10371192 0.07427357 -0.02015901 -0.062044937
00000000: 0a67 0f3d 2d20 9d3d 1838 0bbd c856 01bd
00000010: 9321 d2bd 85ae 1cbe 6ff8 72bc d780 5a3d
00000020: 24d6 ebbd cdd2 cabd 2461 febc da41 cfbb
00000030: 3878 8a3c ad74 033e 1057 f8bc f056 a9bc
00000040: 99d8 49bd 9c88 ec3c d39e f6bd 6755 41bd
00000050: 1e16 20bd f8af 363e 68f9 0b3e f9af 4cbc
00000060: 34b0 ce3c d977 ef3d 7826 e03d 6e37 893d
00000070: 03c6 12be 1d5f 33be 9eb7 033e ecb7 173c
00000080: 3771 283c 6199 283d 9c83 243e da53 3b3d
00000090: 20e3 6cbc dc01 3f3c 2613 313d 02ac 833c
000000a0: 7338 4fbd 143d d43d 0f65 0ebe d958 29bd
000000b0: 0a3b 1c3d f660 cd3d aec6 c1bc eafa edbd
000000c0: cf20 13bc 447f 603e f7c8 163d 3ba6 2ebe
000000d0: 960e f8bd 0800 d33d 217b 92bb 3500 d23d
000000e0: 30ea e4bd 84b8 39bd 7700 83bd c577 06be
000000f0: b9c8 c53d 39a9 583d 3a29 f23d ea9a 21bd
00000100: 51e6 a0bd 02cc bf3d 5f81 673d ee31 5e3c
00000110: 878e 163d 7cab 0cbe 0ce4 f8bd b3ad afbd
00000120: eaaf 2cbd 39a5 a23d d15b f5bd 1709 963d
00000130: ede3 11be c0f8 8cbc df22 f4bd 27ae c0bd
00000140: b9c3 9b3d 87a8 1c3e 1726 14be 3cc3 f0bc
00000150: e8a7 cc3d 680b 27be 5952 f33d b9ae b9ba
00000160: 4125 12be 6fdf 8c3d ed69 a23d beb6 df3d
00000170: 3bfc 2e3e 8e32 143e 5532 793d d731 5dbd
00000180: c6f5 2cbc ddb7 093d a59a e03c c211 bd3d
00000190: d8af 253d 89ed 083c 2ce4 90bc d961 0cbe
000001a0: d9b0 92bd 3457 963c 75a8 d73b 49a4 0c3e
000001b0: 84eb 5dbd a388 cebd c665 c4bd 417b 973d
000001c0: 2c7c 223d e2a7 aabd 2be3 ec3c 37ff 2c3e
000001d0: 2520 b43d 0d45 24bc 8a4a 9d3d ae39 d1bd
000001e0: 43bf 393e 6c34 3a3c 0ab4 253e daf8 47bc
000001f0: 40e9 fb3c 2ed4 b43d 8b2b 94bd 5f53 ddbd
00000200: b3a6 0abd 6be1 3ebc b4c7 08bd 29de 833c
00000210: 0b35 173d 980e 473e 733a 5abd 2cfd 6dbe
00000220: 00bb cdbd beb0 4ebe 2394 203d d4d2 d2bc
00000230: f4dc 11be ce85 223d 9789 7e3d a983 c2bc
00000240: d187 853d 2a34 083e f699 fc3d f3e0 913d
00000250: 5549 85bd 1898 5f3d 8b4b 80bc 9b2c 3b3d
00000260: c622 70bc 862d 2fbe 8d7e 91be f9fc 81be
00000270: 152d 1a3e 05c8 d83d 3df6 453d 0836 5d3d
00000280: c395 2b3e 4e7b 6e3e e4e9 07bd ad14 833c
00000290: 9b28 84bd f056 863d 2246 7e3d 61b9 993c
000002a0: f89b bd3d 17bb b83d 8263 9e3d 5315 903d
000002b0: c214 843c 88e0 213d e442 aabb 75c3 08be
000002c0: d46c 9dbd f111 50bd 5040 c93d 8cd7 143e
000002d0: 1828 8bbb a0ce 8a3b 738e 3d3c 562f 693c
000002e0: 0613 983d e2bd 983d cd27 3d3d 5eb7 da3a
000002f0: ed9b 003e a64c 3e3e fb5c 693d 96e2 9b3d
00000300: c90a 613c 5a09 293e e0d7 0e3e 4e17 16bd
00000310: ceae 0e3e df2b 783e 7a53 4abb 43e9 35be
00000320: cf1c d8bd 65d5 0abe 61e1 393d f981 ecbd
00000330: 6690 afbd 94d1 ab3d 11d9 23be 8725 8e3e
00000340: 1bd5 463e 0c4a 1c3e 8241 273e 1591 133e
00000350: e8f2 023e a3f4 38be 8b0b d13d 7c88 553e
00000360: def6 6d3b fcb6 01be a3ee 28bd 418b 983d
00000370: bebe 8b3d b6e3 ff3d c0b6 693e 50ce 353e
00000380: 166a 643e 398c 0f3e ff30 ccbc 51c2 263d
00000390: ec99 523e a420 4c3e fd58 5d3e 6280 863d
000003a0: dcd8 9abc 0516 1ebd d7ff a9bd a285 13be
000003b0: d784 febd 348b 6abd faf1 2c3c d2ae 543e
000003c0: 684d 4f3e fe9c 8c3e 149a a93c 6088 b43d
000003d0: 3df7 f4bd a057 bebd fbca 533e 7fdd 9c3d
000003e0: 71df 3f3e 985e ba3d 1de4 0a3e daa0 3a3d
000003f0: ea66 d43d be1c 983d 8224 a5bc d522 7ebd

Conv2.bias f4 [10]
-0.08906374 0.10605722 0.016139884 -0.035831843 -0.11694396 -0.15834442 0.003550368 -0.07238387
0.063591756 0.19876382
00000000: 0d67 b6bd 8734 d93d ca37 843c 69c4 12bd
00000010: 5180 efbd 0a25 22be 4aad 683b ff3d 94bd
00000020: 653c 823d be88 4b3e

Matrix1.weight f4 [100, 490]
-0.007745612 0.034144044 -0.031864345 -0.031239515 -0.03896609 -0.04221122 0.032478295 -0.03013909
0.030933807 0.026273865 -0.029218594 0.033320773 0.04917722 -0.015646126 -0.024819093 -0.022004275
-0.010169336 -0.023084091 0.008741614 -0.03134267 -0.044425275 0.039556045 -0.019253638 0.0013678351
0.016178695 -0.035552487 -0.008341249 -0.011116464 -0.03590872 0.027285147 -0.0009593595 -0.055175267
-0.037529714 0.026678488 -0.012207455 -0.0074899695 -0.01564868 -0.010452578 0.008027273 -0.02901635
0.02863585 -0.019642117 -0.031489186 0.008934789 -0.03447649 -0.0069273342 -0.030106658 -0.025580045
-0.0027338495 -0.036470685 0.021638272 0.018689146 0.0056134462 0.0057917195 0.037938524 0.017442802
-0.014301385 0.020901995 0.037234876 0.012123529 -0.027238937 -0.024665045 0.02527442 0.04481939
0.02545297 -0.0023287954 -0.031529676 -0.021366578 -0.03938075 -0.027005352 -0.014558836 -0.004404323
-0.027284166 -0.010242082 0.03920501 -0.004518129 0.040685385 -0.03214279 -0.05351273 -0.047289778
0.03061353 0.035629895 0.011690397 -0.025985762 -0.041736085 -0.017269958 -0.008757009 0.0439014
0.008860176 0.028574536 -0.026074896 0.03288169 0.012993101 0.043857306 -0.0056721494 0.0009579529
-0.016336894 -0.035796788 0.0443264 -0.017734319 -0.0021972938 0.039360248 -0.037182502 -0.037373744
-0.041856118 -0.0025562756 0.028114107 0.014467114 0.028211473 -0.027384145 0.028267097 0.012550561
0.008377373 0.024872558 0.012521501 -0.05660813 -0.025346348 -0.027046613 -0.027686475 -0.034296077
-0.064466 -0.017031945 -0.053614274 -0.035769135 -0.021566248 0.021914996 0.016512262 0.004080225
0.03615343 0.026325958 -0.055082325 -0.015706725 0.023911832 -0.010661238 0.05104862 0.004684648
-0.024842398 0.007055206 0.027544526 -0.03254125 0.00045851697 0.029695394 -0.009907672 0.00469452
0.010084509 -0.014943757 0.024112877 0.031485382 0.03664647 -0.043026417 0.00647696 0.031842206
0.038535226 -0.03498607 -0.039518103 -0.0033400794 0.019069698 -0.030232862 -0.030444212 -0.036437698
-0.0228642 0.04770536 0.017480468 0.00079296133 0.031987984 0.02619351 -0.02149529 -0.036508586
-0.0007640333 -0.02466329 -0.011606405 0.045741633 0.08509777 0.01758882 -0.023314398 -0.017582
0.016837131 -0.041553296 -0.027422644 -0.03011539 -0.0072738277 0.014945668 -0.0012741257 -0.046109
-0.033455525 -0.02040883 -0.020238938 -0.00386264 -0.0204448 0.005483273 0.034395553 0.008074364
0.008100902 -0.04458787 0.031798236 0.02870493 -0.036985587 -0.020765834 0.030663036 0.030135164
0.028961023 -0.030464495 -0.015089174 0.036051523 -0.0033877129 -0.017037397 0.054711066 -0.023623353
-0.034888256 0.018523145 0.042236853 0.021985043 -0.016842106 -0.013553736 0.018090062 -0.0064299847
-0.023589898 -0.029309105 0.007871059 -0.04709053 0.06089476 0.05405955 -0.0028795926 0.027379783
-0.008395046 0.009073355 0.0038882536 0.017308695 0.0012810605 -0.05509177 0.014322975 -0.016463881
-0.041109733 -0.03940418 -0.04340623 -0.03817361 0.025501925 0.023124482 0.005329942 0.06434259
0.010992609 0.012348496 0.06251901 -0.00089515303 0.04201906 0.025208272 0.00782906 -0.03257061
0.028289149 0.022683077 -0.042530764 -0.0025914316 0.014384229 -0.03253227 -0.03126217 0.014278652
00000000: e7ce fdbb a0da 0b3d 3084 02bd 03ea ffbc
00000010: e89a 1fbd ace5 2cbd f607 053d 41e6 f6bc
00000020: e568 fd3c 4a3c d73c d55b efbc 5d7b 083d
00000030: 0d6e 493d 4e2c 80bc 6951 cbbc 4f42 b4bc
00000040: 499d 26bc d91a bdbc fd38 0f3c 2c61 00bd
00000050: 47f7 35bd 8505 223d ceb9 9dbc ee48 b33a
00000060: 2f89 843c 7c9f 11bd bca9 08bc d421 36bc
00000070: 0615 13bd 1a85 df3c 877d 7bba 76ff 61bd
00000080: c2b8 19bd d88c da3c c701 48bc 6b6e f5bb
00000090: a931 80bc 4a41 2bbc d384 033c b2b3 edbc
000000a0: bb95 ea3c 81e8 a0bc cefa 00bd 3963 123c
000000b0: 3837 0dbd b1fe e2bb 3da2 f6bc 3e8d d1bc
000000c0: 622a 33bb 4962 15bd bf42 b13c fb19 993c
000000d0: 00f1 b73b 77c8 bd3b 6d65 1b3d 35e4 8e3c
000000e0: 5b50 6abc a93a ab3c 9983 183d c4a1 463c
000000f0: 3124 dfbc 590e cabc 4d0c cf3c 8994 373d
00000100: bf82 d03c b49e 18bb 4325 01bd f608 afbc
00000110: b64d 21bd 543a ddbc 2f88 6ebc 2452 90bb
00000120: 0b83 dfbc 68ce 27bc 6f95 203d d00c 94bb
00000130: b8a5 263d 28a8 03bd 2a30 5bbd edb2 41bd
00000140: 3ac9 fa3c a7f0 113d 1489 3f3c 18e0 d4bc
00000150: 75f3 2abd ba79 8dbc 8f79 0fbc f4d1 333d
00000160: 462a 113c 2515 ea3c 059b d5bc f3ae 063d
00000170: 04e1 543c b8a3 333d 70dd b9bb 221f 7b3a
00000180: f3d4 85bc a79f 12bd 998f 353d 9047 91bc
00000190: 7900 10bb 3638 213d ae4c 18bd 3615 19bd
000001a0: 5271 2bbd 3087 27bb 8e4f e63c 7907 6d3c
000001b0: bf1b e73c b754 e0bc 6690 e73c dea0 4d3c
000001c0: 4041 093c 89c1 cb3c fb26 4d3c eddd 67bd
000001d0: 25a3 cfbc dc90 ddbc bfce e2bc 0b7a 0cbd
000001e0: c006 84bd 9486 8bbc a49a 5bbd a882 12bd
000001f0: b3ab b0bc 1487 b33c b944 873c 68b3 853b
00000200: 9e15 143d 89a9 d73c 019e 61bd 64ab 80bc
00000210: bfe2 c33c 79ac 2ebc 5c18 513d ad81 993b
00000220: 4982 cbbc 5c2f e73b 0fa5 e13c f949 05bd
00000230: 1b65 f039 c143 f33c ca53 22bc 7dd4 993b
00000240: 7f39 253c a9d6 74bc 5e88 c53c d1f6 003d
00000250: 9c1a 163d 783c 30bd ae3c d43b f96c 023d
00000260: 1dd7 1d3d 8e4d 0fbd bcdd 21bd 3ce5 5abb
00000270: 0e38 9c3c e8aa f7bc 2466 f9bc b23f 15bd
00000280: b44d bbbc b266 433d 3333 8f3c bcde 4f3a
00000290: d505 033d c693 d63c e416 b0bc 078a 15bd
000002a0: 6849 48ba ab0a cabc ca28 3ebc 945b 3b3d
000002b0: bd47 ae3d 6e16 903c d6fd bebc 2008 90bc
000002c0: 06ee 893c ca33 2abd 74a5 e0bc 8db4 f6bc
000002d0: 4a59 eebb adde 743c 9000 a7ba cadc 3cbd
000002e0: a908 09bd 6b30 a7bc 21cc a5bc 5824 7dbb
000002f0: da7b a7bc 07ad b33b 5ae2 0c3d 564a 043c
00000300: a5b9 043c c5a1 36bd de3e 023d 9a26 eb3c
00000310: 337e 17bd 1c1d aabc 0c31 fb3c 05de f63c
00000320: ab3f ed3c ad90 f9bc 9538 77bc c3aa 133d
00000330: 6404 5ebb 0392 8bbc b618 603d c385 c1bc
00000340: fde6 0ebd dabd 973c 8d00 2d3d fa19 b43c
00000350: 75f8 89bc 7d10 5ebc 9c31 943c 9fb2 d2bb
00000360: 9a3f c1bc a619 f0bc 9df5 003c 00e2 40bd
00000370: c96c 793d 8c6d 5d3d 8cb7 3cbb 914b e03c
00000380: 608b 09bc 69a8 143c 12d2 7e3b f7ca 8d3c
00000390: 42e9 a73a e8a7 61bd e9aa 6a3c 43df 86bc
000003a0: ae62 28bd 4766 21bd bbca 31bd ee5b 1cbd
000003b0: 6ae9 d03c 8e6f bd3c cba6 ae3b 0cc6 833d
000003c0: 581a 343c 5951 4a3c f709 803d b4a8 6aba
000003d0: 2e1c 2c3d 9481 ce3c 7545 003c c368 05bd
000003e0: a5be e73c dcd1 b93c bd34 2ebd 02d5 29bb
000003f0: d4ab 6b3c 8f40 05bd c30c 00bd 02f1 693c

Matrix1.bias f4 [100]
0.036096234 0.0066121086 -0.029850794 -0.051048424 0.046402384 0.030803762 0.013496273 0.061144155
0.021562142 0.0060735056 0.019429544 0.024501175 0.034266602 0.0015329862 0.03089561 -0.037010632
0.02729703 0.023465486 0.029663906 0.04504444 -0.043646306 -0.03452602 0.03253951 0.032596383
-0.034961667 -0.009714774 -0.032797024 -0.014650881 0.04937619 0.029835574 -0.0042152745 0.045828957
-0.037180297 0.025871037 -0.042379323 -0.04493267 0.07056069 0.038606595 0.01976326 0.01884062
0.039426066 0.010471382 0.0070271674 0.028827159 0.0066663506 -0.025650403 -0.01969377 0.013947851
-0.025946388 0.011320555 0.036074784 0.014902447 -0.040893964 0.038476497 0.028063323 0.003499251
-0.035769563 0.035575975 -0.011347737 -0.0109071825 0.01881342 -0.037346553 0.008683961 0.021476764
0.04363323 -0.034861334 0.0012998454 -0.006607378 0.009455693 -0.004611599 0.028941339 -0.022481252
0.02466937 0.04014493 0.04269428 -0.048129287 0.036445573 0.049519267 0.026675098 0.011605148
0.011999695 -0.00652327 0.042651627 -0.0046930253 -0.031149637 0.017467933 -0.021623464 0.04063498
0.021757772 -0.0012002782 -0.007828681 -0.027339572 0.033702802 0.0201794 0.010551892 0.0042365305
0.0038380122 0.0014871659 -0.029831558 -0.025823046
00000000: a5d9 133d 63aa d83b a789 f4bc 2718 51bd
00000010: 6d10 3e3d 2c58 fc3c 791f 5d3c 4b72 7a3d
00000020: 17a3 b03c 4204 c73b b52a 9f3c b0b6 c83c
00000030: 235b 0c3d 7bee c83a ca18 fd3c 7698 17bd
00000040: 059e df3c b13a c03c b801 f33c 8580 383d
00000050: 78c6 32bd 286b 0dbd 2648 053d c983 053d
00000060: f733 0fbd b72a 1fbc 2c56 06bd 400a 70bc
00000070: b03e 4a3d bc69 f43c 4920 8abb 25b7 3b3d
00000080: 5e4a 18bd 7fef d33c f195 2dbd 520b 38bd
00000090: 1f82 903d f321 1e3d 8fe6 a13c a557 9a3c
000000a0: 3a7d 213d 2990 2b3c 2744 e63b ef26 ec3c
000000b0: 6771 da3b cb20 d2bc d454 a1bc 8785 643c
000000c0: 858d d4bc d979 393c 27c3 133d 6529 743c
000000d0: 6e80 27bd 8899 1d3d 0ee5 e53c b153 653b
000000e0: 1b83 12bd 1db8 113d dceb 39bc 0ab4 32bc
000000f0: 9a1e 9a3c b3f8 18bd 2c47 0e3c 0af0 af3c
00000100: c2b8 323d c2ca 0ebd 935f aa3a b482 d8bb
00000110: 0dec 1a3c e51c 97bb 6316 ed3c 9a2a b8bc
00000120: 6b17 ca3c 036f 243d 33e0 2e3d 3723 45bd
00000130: f447 153d b7d4 4a3d bc85 da3c 8523 3e3c
00000140: 5e9a 443c 28c1 d5bb 79b3 2e3d f3c7 99bb
00000150: 862d ffbc e918 8f3c b123 b1bc dd70 263d
00000160: 5b3d b23c a752 9dba de43 00bc 3df7 dfbc
00000170: f30b 0a3d 454f a53c d8e1 2c3c 98d2 8a3b
00000180: 2987 7b3b 02ed c23a 5061 f4bc da8a d3bc

Matrix2.weight f4 [50, 100]
0.055239797 -0.035521343 0.004476379 -0.08163146 -0.040277228 0.08104246 0.05336254 0.10101139
0.0100166425 -0.007458018 0.13010556 0.041938227 -0.025675915 0.004368679 0.10393402 0.017652938
0.028585922 0.07120126 -0.015284063 -0.008610218 0.06642051 0.03245806 0.053189483 0.10496219
-0.06546942 -0.027966794 5.6811703e-05 0.06397562 0.01952452 0.019053744 0.0099450825 -0.07885291
-0.019018374 0.0006142868 -0.041736893 0.12004709 -0.13841592 -0.026149502 -0.08723188 0.058571327
0.039942026 -0.0016372561 0.11755651 0.062608786 -0.014487181 -0.003112429 0.07324196 -0.0535653
-0.09803058 0.046266336 -0.06549538 0.013407802 0.0009798561 0.11535816 -0.047378607 0.0018567507
0.035798438 0.049139798 -0.10683852 -0.041244276 -0.078528434 0.025207525 -0.08070508 0.04483101
-0.08767152 0.060315013 -0.04122751 0.04200797 0.09439932 -0.12482012 0.058099885 0.049755085
0.019365001 0.022968857 -0.05257725 0.10307663 0.123569936 -0.02369835 0.006791456 0.0022364485
-0.09683654 0.09193519 -0.050683852 -0.046293132 -0.08452044 0.050698575 0.04623013 0.02846623
0.09166402 -0.06847718 -0.062272493 0.035537537 -0.013988654 0.11695573 -0.059655152 -0.1493
-0.08205578 -0.08170462 0.009236067 0.050489683 -0.08437061 -0.0808394 -0.010647644 0.085974365
-0.031643994 -0.015409098 -0.053932358 0.066882335 -0.06419051 -0.08566823 -0.0106183775 -0.06724322
0.06335102 0.021550894 0.082544334 0.0753439 0.07229225 0.03353598 -0.03241865 0.0082755005
-0.021757307 0.09202392 -0.020003287 -0.0062201475 0.007860169 -0.01251766 0.067264564 -0.079277225
0.08996976 -0.08698218 0.06952199 -0.10074477 0.028819293 0.07124325 -0.10550937 0.07570231
-0.057430238 0.10099765 -0.011192756 -0.038793888 -0.021700798 -0.03283849 -0.014309109 -0.03222258
0.0076235547 0.08949293 0.02860535 0.0863899 0.089899965 -0.036517598 -0.03588134 0.014438238
0.06478981 0.010512469 0.045060165 0.06806905 -0.08116623 -0.07020874 -0.056340624 -0.021161187
0.06681795 -0.033760563 0.0619911 0.010741552 -0.058647096 -0.010140547 -0.08819364 0.100566216
0.06950171 0.06763388 0.09607185 -0.09575913 -0.03583146 -0.03933284 -0.086241886 0.027876098
-0.043728467 -0.022761758 -0.06949591 -0.052467354 -0.041717578 -0.016149255 -0.047393985 -0.011689609
-0.024246251 -0.04106225 -0.02759519 0.05323254 -0.029826619 -0.06905907 -0.0029345704 -0.058793485
0.034060534 0.021423303 0.024896638 -0.0834897 0.06661185 -0.048372097 0.088710345 0.03249139
0.026734622 0.0545799 -0.047922842 0.030765459 -0.089815974 -0.07404483 0.083034486 0.047755614
-0.092571154 0.008906127 0.03423104 0.037797082 -0.017006764 -0.021083059 -0.099421136 0.082472175
-0.029676834 0.021116719 0.005606098 0.08751939 0.06287915 0.00096283853 0.070495114 -0.06912348
0.0406496 -0.0022418187 -0.019287506 -0.0335664 -0.07021002 -0.0009500168 -0.02366478 0.0001408252
0.01728976 0.031473286 -0.037636563 0.060027175 -0.0037266538 -0.021880323 0.07042392 -0.062302787
0.0150109995 0.044960734 0.06813403 -0.027960507 0.010413736 -0.0930901 -0.06895747 0.03731067
-0.00895004 0.03180971 -0.06439853 0.09759243 0.049874317 -0.04731669 -0.0932211 0.050643854
00000000: 2043 623d d47e 11bd 97ae 923b 652e a7bd
00000010: bcf9 24bd 97f9 a53d ae92 5a3d 0fdf ce3d
00000020: d81c 243c 6462 f4bb 643a 053e 6bc7 2b3d
00000030: 4c56 d2bc 2327 8f3b 5cdb d43d e59c 903c
00000040: 062d ea3c f7d1 913d 026a 7abc df11 0dbc
00000050: 7a07 883d bef2 043d 37dd 593d 6bf6 d63d
00000060: d514 86bd 9e1a e5bc 1a49 6e38 a605 833d
00000070: e3f1 9f3c 9916 9c3c b3f0 223c a27d a1bd
00000080: 6ccc 9bbc 1708 213a 4ef4 2abd 40db f53d
00000090: e7bc 0dbe 7b37 d6bc a1a6 b2bd 7de8 6f3d
000000a0: 409a 233d 3399 d6ba 78c1 f03d 0939 803d
000000b0: a45b 6dbc e5f9 4bbb e1ff 953d 4a67 5bbd
000000c0: 42c4 c8bd c581 3d3d 7122 86bd 66ac 5b3c
000000d0: 846e 803a e640 ec3d 1210 42bd 375e f33a
000000e0: 62a1 123d d046 493d 27ce dabd c2ef 28bd
000000f0: 84d3 a0bd 0380 ce3c b448 a5bd b9a0 373d
00000100: 208d b3bd e00c 773d 2dde 28bd 8d10 2c3d
00000110: 6e54 c13d b1a1 ffbd 25fa 6d3d fdcb 4b3d
00000120: 5aa3 9e3c 2f29 bc3c 3e5b 57bd d719 d33d
00000130: 3c12 fd3d 0b23 c2bc dd8a de3b 6191 123b
00000140: 3c52 c6bd 8448 bc3d df99 4fbd de9d 3dbd
00000150: 0d19 adbd 4fa9 4f3d ce5b 3d3d 0332 e93c
00000160: 59ba bb3d c43d 8cbd 7111 7fbd cf8f 113d
00000170: ab30 65bc 7c86 ef3d f658 74bd 19e2 18be
00000180: dc0c a8bd c054 a7bd df52 173c 45ce 4e3d
00000190: 80ca acbd 218f a5bd 7573 2ebc 5413 b03d
000001a0: 229d 01bd 7176 7cbc 2de8 5cbd 9bf9 883d
000001b0: 5076 83bd d372 afbd b4f8 2dbc d0b6 89bd
000001c0: 2ebe 813d 808b b03c 010d a93d e74d 9a3d
000001d0: f60d 943d 065d 093d 6bc9 04bd f795 073c
000001e0: 613c b2bc 0977 bc3d efdd a3bc 61d2 cbbb
000001f0: f0c7 003c df16 4dbc 01c2 893d 195c a2bd
00000200: 1142 b83d b723 b2bd 8c61 8e3d 4653 cebd
00000210: 7016 ec3c fbe7 913d 4c15 d8bd d009 9b3d
00000220: f83b 6bbd dbd7 ce3d d261 37bc 57e6 1ebd
00000230: dfc5 b1bc a781 06bd c170 6abc d3fb 03bd
00000240: 03cf f93b 1248 b73d c455 ea3c 30ed b03d
00000250: 791d b83d 7a93 15bd 50f8 12bd 5c8e 6c3c
00000260: 85b0 843d 7e3c 2c3c 0291 383d c967 8b3d
00000270: 7b3a a6bd 9ac9 8fbd 6dc5 66bd 3a5a adbc
00000280: d9d7 883d 8448 0abd 61ea 7d3d 56fd 2f3c
00000290: f037 70bd 8924 26bc de9e b4bd a9f5 cd3d
000002a0: ea56 8e3d a283 8a3d 51c1 c43d 5d1d c4bd
000002b0: 02c4 12bd 791b 21bd 969f b0bd 6a5c e43c
000002c0: 9f1c 33bd de76 babc df53 8ebd 02e8 56bd
000002d0: 0de0 2abd 714b 84bc 3220 42bd c685 3fbc
000002e0: 13a0 c6bc e430 28bd 4f0f e2bc 5d0a 5a3d
000002f0: f456 f4bc d76e 8dbd ec51 40bb 70d1 70bd
00000300: 0f83 0b3d ec7f af3c 09f4 cb3c a6fc aabd
00000310: cb6b 883d d221 46bd c5ad b53d b115 053d
00000320: 9102 db3c 2c8f 5f3d be4a 44bd d807 fc3c
00000330: 70f1 b7bd d1a4 97bd fc0d aa3d 649b 433d
00000340: f295 bdbd 01eb 113c d935 0c3d 1dd1 1a3d
00000350: c551 8bbc 61b6 acbc 4f9d cbbd 2ce7 a83d
00000360: d51c f3bc f8fc ac3c 5cb3 b73b 5e3d b33d
00000370: c9c6 803d 0067 7c3a be5f 903d 9c90 8dbd
00000380: 3280 263d 7aeb 12bb d500 9ebc ec7c 09bd
00000390: 45ca 8fbd 8c0a 79ba a4dc c1bc 7aaa 1339
000003a0: 41a3 8d3c 22ea 003d cc28 1abd 0edf 753d
000003b0: e03a 74bb 5d3e b3bc 6b3a 903d 3531 7fbd
000003c0: b2f0 753c bf28 383d db89 8b3d 6f0d e5bc
000003d0: 609e 2a3c 06a6 bebd 9339 8dbd 13d3 183d
000003e0: 30a3 12bc e64a 023d 60e3 83bd 8ade c73d
000003f0: 0349 4c3d 25cf 41bd b4ea bebd ee6f 4f3d

Matrix2.bias f4 [50]
0.05325354 -0.05901647 -0.09943868 0.04791732 -0.006830409 0.082797796 0.012065021 0.101775005
-0.00461313 0.13680556 -0.04164945 -0.07920146 0.048929878 -0.07883311 -0.03786604 0.027064016
0.09733942 0.026830416 0.021788009 0.10913003 -0.05324865 -0.062151134 0.021884 0.14821558
0.06219855 -0.022354662 -0.02788606 -0.061293375 0.116845004 0.023450026 -0.07879367 -0.0218041
0.07935778 -0.039614957 -0.038538426 0.0889264 0.050369844 0.06558068 0.046397783 -0.06729983
0.0320761 0.018782612 0.060672693 0.007902862 0.060762923 0.025686866 -0.006704435 -0.050585415
-0.0510591 0.0020230107
00000000: 6220 5a3d 41bb 71bd 82a6 cbbd f444 443d
00000010: a0d1 dfbb e491 a93d 5eac 453c 6a6f d03d
00000020: bd29 97bb c216 0c3e 9d98 2abd 6034 a2bd
00000030: b26a 483d 4173 a1bd 6c19 1bbd 5bb5 dd3c
00000040: e459 c73d 76cb db3c c47c b23c 917f df3d
00000050: 421b 5abd 3092 7ebd 1346 b33c d3c5 173e
00000060: e8c3 7e3d 2021 b7bc 4e71 e4bc c30e 7bbd
00000070: 6f4c ef3d 451a c03c 935e a1bd 839e b2bc
00000080: 5586 a23d 4b43 22bd 78da 1dbd 0b1f b63d
00000090: 9c50 4e3d 2a4f 863d 9a0b 3e3d 7ed4 89bd
000000a0: 3b62 033d fedd 993c ee83 783d 017b 013c
000000b0: 8be2 783d 436d d23c e1b0 dbbb a732 4fbd
000000c0: 5923 51bd 7d94 043b

Matrix3.weight f4 [10, 50]
0.0075073154 0.13248684 -0.046113722 0.17179634 0.007508759 -0.13548577 -0.1251595 -0.033498112
-0.07822424 0.058150962 -0.006980593 0.13918932 0.18166392 0.033924263 -0.010673974 -0.10764154
0.0920608 -0.0016435825 0.2443111 -0.053859137 -0.02851864 -0.13906205 0.024483586 0.09893073
-0.083230965 -0.12808405 0.11031889 -0.11943632 0.052901246 0.02588756 0.08176673 0.019949308
-0.10703069 0.049400274 -0.036726765 0.0041002603 -0.09347532 0.017920507 0.11097109 0.11222728
-0.023868881 -0.11241017 0.09755178 -0.06613787 0.048898127 0.013445912 0.33370844 -0.06322679
0.080757745 -0.0047631487 0.050625976 -0.009768932 0.028424898 -0.13533853 -0.0041756355 0.06904146
-0.092023574 -0.054701105 -0.06608403 -0.16934527 0.006254208 -0.04717012 -0.082279645 0.13873804
0.039338212 -0.116584085 -0.2044981 -0.04739397 0.011617803 0.19469264 0.200669 -0.217583
-0.16575693 0.19144286 0.007189603 -0.07617535 -0.11511976 -0.01716987 -0.07256229 -0.007332843
0.107050285 -0.14818642 0.07736402 -0.04481355 -0.10714297 0.25201577 -0.011942487 -0.22615206
0.022831311 0.12716527 -0.119854175 -0.09775355 0.12570478 0.0033251676 -0.08900126 -0.030395705
0.05974052 0.007470285 0.060513284 -0.03450188 -0.1642998 0.12997995 0.09022715 -0.111422375
0.059423875 0.16835551 0.030912554 -0.05661872 -0.10950842 0.11281889 -0.09568077 -0.083006285
-0.12993261 -0.0921135 -0.01935502 0.21459451 -0.1833568 0.010378724 0.16510682 0.10233606
-0.08167752 0.0655964 -0.092924476 0.20326592 -0.03196062 -0.0059350845 -0.12099272 -0.13499862
-0.07438232 -0.075451255 0.16401091 -0.051295254 -0.14894493 0.10155284 -0.12374469 -0.1823094
-0.087716006 0.1143075 -0.019290283 -0.12203145 0.16324696 -0.06388749 -0.07136676 -0.019280283
-0.04410319 -0.0801303 -0.14966619 -0.069103606 -0.107846975 -0.027391076 0.10059922 -0.043972105
-0.04342294 -0.005365714 -0.017003866 0.07581493 0.10563689 -0.070780925 -0.042169128 -0.056466278
0.11236035 -0.031196412 0.083921984 0.09603992 -0.06846006 -0.17674692 -0.03777578 0.11329206
0.06501134 0.14895298 -0.09824669 0.057868335 0.0897331 -0.2098263 0.020884234 0.06794895
-0.03769197 -0.085109 0.0065739774 -0.1346691 -0.15063366 0.15934181 0.006182779 0.014846441
-0.078012906 0.17439196 -0.037651088 0.04205519 0.09812423 0.13808516 0.21403025 -0.13464808
-0.07586044 -0.16852169 -0.18138582 0.33041885 -0.048210505 0.013934232 -0.017575933 0.15463553
0.017850962 -0.13210316 0.10205954 -0.009131403 0.21225713 -0.16277328 0.027206417 0.2568856
0.054353304 -0.13879123 0.06033043 0.09353538 -0.13508506 0.0036017753 -0.1284438 0.05252795
0.06247401 0.24627616 0.0859843 0.05866429 0.12014353 0.04760517 0.02293144 -0.053827092
0.33327544 0.12905593 0.11643053 -0.13904561 0.03712507 -0.14796063 -0.07449197 0.03359453
-0.15562712 0.17058925 -0.037431523 -0.18678097 0.026118299 -0.021214843 0.16629148 -0.100157626
0.017696297 -0.04195533 -0.079876415 0.009891487 -0.15639612 0.00201984 -0.035388667 0.025192624
0.020448502 0.09469373 0.18595421 -0.07903185 -0.0048997505 0.03333791 -0.09176803 0.10373039
00000000: edff f53b a1aa 073e bee1 3cbd 61eb 2f3e
00000010: 090c f63b c8bc 0abe d029 00be 5135 09bd
00000020: 0834 a0bd b42f 6e3d 75bd e4bb a587 0e3e
00000030: 1b06 3a3e 2bf4 0a3d e4e1 2ebc 2b73 dcbd
00000040: 5f8a bc3d 7a6d d7ba b02c 7a3e 669b 5cbd
00000050: ec9f e9bc 4866 0ebe cd91 c83c 329c ca3d
00000060: ff74 aabd 7728 03be dfee e13d 089b f4bd
00000070: faae 583d 2612 d43c 5175 a73d bb6c a33c
00000080: e832 dbbd f157 4a3d ce6e 16bd 7a5b 863b
00000090: fd6f bfbd 07ce 923c d044 e33d 6bd7 e53d
000000a0: ac88 c3bc 4e37 e6bd 3ac9 c73d 4b73 87bd
000000b0: 6749 483d 3e4c 5c3c d5db aa3e 0c7d 81bd
000000c0: 5164 a53d 3014 9cbb 2f5d 4f3d df0d 20bc
000000d0: 55db e83c 2f96 0abe c5d3 88bb 9c65 8d3d
000000e0: db76 bcbd 440e 60bd 1057 87bd d968 2dbe
000000f0: 19f0 cc3b 7535 41bd 3b82 a8bd 5811 0e3e
00000100: 1b21 213d a3c3 eebd f367 51be 2e20 42bd
00000110: 9958 3e3c 825d 473e 2d7c 4d3e 14ce 5ebe
00000120: 2fbc 29be 9909 443e c396 eb3b d201 9cbd
00000130: e9c3 ebbd d4a7 8cbc 8a9b 94bd 5848 f0bb
00000140: 2e3d db3d 2ebe 17be 0771 9e3d 6a8e 37bd
00000150: c66d dbbd 3608 813e 6caa 43bc 6894 67be
00000160: bb08 bb3c 9d37 023e 1b76 f5bd 0333 c8bd
00000170: c1b8 003e 0eeb 593b 4b46 b6bd 6a00 f9bc
00000180: 7ab2 743d 4bc9 f43b c7dc 773d d851 0dbd
00000190: 353e 28be 7719 053e 03c9 b83d 6a31 e4bd
000001a0: 7366 733d 6365 2c3e 533c fd3c 08e9 67bd
000001b0: f345 e0bd 970d e73d 48f4 c3bd 33ff a9bd
000001c0: 0e0d 05be 01a6 bcbd 6b8e 9ebc aabe 5b3e
000001d0: e3c1 3bbe 860b 2a3c c311 293e 9195 d13d
000001e0: 8b46 a7bd 6857 863d 304f bebd f124 503e
000001f0: 24e9 02bd 197b c2bb 08cb f7bd 143d 0abe
00000200: c255 98bd 3086 9abd 7af2 273e f91a 52bd
00000210: 0585 18be effa cf3d db6d fdbd 51af 3abe
00000220: 73a4 b3bd 0d1a ea3d a806 9ebc a0eb f9bd
00000230: 362a 273e 72d7 82bd bc28 92bd aff1 9dbc
00000240: 8ca5 34bd 5b1b a4bd 1842 19be 3186 8dbd
00000250: e0de dcbd 4063 e0bc f706 ce3d 181c 34bd
00000260: 41dc 31bd dfd2 afbb b14b 8bbc dc44 9b3d
00000270: 2758 d83d 97f5 90bd 89b9 2cbd 2f49 67bd
00000280: 2f1d e63d 9e8f ffbc 4adf ab3d 94b0 c43d
00000290: ca34 8cbd 25fd 34be c7ba 1abd ab05 e83d
000002a0: aa24 853d 2187 183e 9035 c9bd 5907 6d3d
000002b0: fdc5 b73d b5dc 56be 6a15 ab3c d228 8b3d
000002c0: e562 1abd a14d aebd 856a d73b b2e6 09be
000002d0: b63f 1abe 802a 233e e998 ca3b 7d3e 733c
000002e0: 3bc5 9fbd ce93 323e 0738 1abd 1042 2c3d
000002f0: 5bf5 c83d 3266 0d3e bf2a 5b3e 30e1 09be
00000300: b85c 9bbd f390 2cbe 34bd 39be a92c a93e
00000310: 6178 45bd 684c 643c 67fb 8fbc c758 1e3e
00000320: 2e3c 923c 0d46 07be 9804 d13d e19b 15bc
00000330: ef59 593e 0aae 26be fedf de3c 8286 833e
00000340: 92a1 5e3d 4a1f 0ebe 0a1d 773d 7a8f bf3d
00000350: bd53 0abe c30b 6c3b c686 03be 8c27 573d
00000360: bfe4 7f3d d12f 7c3e 8918 b03d f749 703d
00000370: d00d f63d a4fd 423d b7da bb3c cc79 5cbd
00000380: 14a3 aa3e 3d27 043e 2173 ee3d f961 0ebe
00000390: 7510 183d fe82 17be 3f8f 98bd 6b9a 093d
000003a0: b75c 1fbe f3ae 2e3e cc51 19bd 8343 3fbe
000003b0: 0bf6 d53c c0ca adbc 5048 2a3e 711f cdbd
000003c0: d3f7 903c 5ad9 2bbd 3f96 a3bd e70f 223c
000003d0: 4e26 20be 4b5f 043b b5f3 10bd c360 ce3c
000003e0: 9e83 a73c c9ee c13d c86a 3e3e 73db a1bd
000003f0: 168e a0bb 558d 083d e0f0 bbbd 9970 d43d

Matrix3.bias f4 [10]
0.08823439 0.22899304 0.10354408 0.00076834764 0.10918821 0.034032445 0.00021871239 0.028795516
0.05125306 0.18236665
00000000: 3bb4 b43d 277d 6a3e eb0e d43d f06a 493a
00000010: 119e df3d 9b65 0b3d 2956 6539 93e4 eb3c
00000020: bbee 513d 53be 3a3e
